…
e input:\", X_train_code.shape)\n\n\nItem code input: (1027, 1)\n\n\n\n\nFit model\n\n\nBuild Global RNN with item embedding\nNUM_ITEMS = len(cpi_df[\"item_code\"].unique())   # comes from preprocess step\n\nmodel = build_model(\n    num_items=NUM_ITEMS,\n    window=WINDOW,\n    embed_dim=8\n)\n\nmodel.summary()\n\n\nModel: \"functional\"\n┌─────────────────────┬───────────────────┬────────────┬───────────────────┐\n│ Layer (type)        │ Output Shape      │    Param # │ Connected to      │\n├─────────────────────┼───────────────────┼────────────┼───────────────────┤\n│ item_code_input     │ (None, 1)         │          0 │ -                 │\n│ (InputLayer)        │                   │            │                   │\n├─────────────────────┼───────────────────┼────────────┼───────────────────┤\n│ embedding           │ (None, 1, 8)      │         16 │ item_code_input[… │\n│ (Embedding)         │                   │            │                   │\n├─────────────────────┼───────────────────┼────────────┼───────────────────┤\n│ reshape (Reshape)   │ (None, 8)         │          0 │ embedding[0][0]   │\n├─────────────────────┼───────────────────┼────────────┼───────────────────┤\n│ series_input        │ (None, 36, 1)     │          0 │ -                 │\n│ (InputLayer)        │                   │            │                   │\n├─────────────────────┼───────────────────┼────────────┼───────────────────┤\n│ repeat_vector       │ (None, 36, 8)     │          0 │ reshape[0][0]     │\n│ (RepeatVector)      │                   │            │                   │\n├─────────────────────┼───────────────────┼────────────┼───────────────────┤\n│ concatenate         │ (None, 36, 9)     │          0 │ series_input[0][… │\n│ (Concatenate)       │                   │            │ repeat_vector[0]… │\n├─────────────────────┼───────────────────┼────────────┼───────────────────┤\n│ gru (GRU)           │ (None, 36, 128)   │     53,376 │ concatenate[0][0] │\n├─────────────────────┼───────────────────┼────────────┼───────────────────┤\n│ dropout (Dropout)   │ (None, 36, 128)   │          0 │ gru[0][0]         │\n├─────────────────────┼───────────────────┼────────────┼───────────────────┤\n│ gru_1 (GRU)         │ (None, 32)        │     15,552 │ dropout[0][0]     │\n├─────────────────────┼───────────────────┼────────────┼───────────────────┤\n│ dropout_1 (Dropout) │ (None, 32)        │          0 │ gru_1[0][0]       │\n├─────────────────────┼───────────────────┼────────────┼───────────────────┤\n│ dense (Dense)       │ (None, 32)        │      1,056 │ dropout_1[0][0]   │\n├─────────────────────┼───────────────────┼────────────┼───────────────────┤\n│ dense_1 (Dense)     │ (None, 16)        │        528 │ dense[0][0]       │\n├─────────────────────┼───────────────────┼────────────┼───────────────────┤\n│ dense_2 (Dense)     │ (None, 1)         │         17 │ dense_1[0][0]     │\n└─────────────────────┴───────────────────┴────────────┴───────────────────┘\n Total params: 70,545 (275.57 KB)\n Trainable params: 70,545 (275.57 KB)\n Non-trainable params: 0 (0.00 B)\n\n\n\n\nTrain Global RNN\nEPOCHS = 50\nBATCH_SIZE = 32\n\n# Early stopping callback\ncb = EarlyStopping(\n    monitor=\"val_loss\",\n    patience=5,\n    restore_best_weights=True\n)\n\nhis
…
